conv2d_1_kernel_0.npy (npy, 3536 bytes, 1 tensors)

array f4 [3, 3, 3, 32]
00000000: 91c1 16be 2914 063e b1de ba3d 7ec9 133d
00000010: fbb2 a3bd 173c 853c b4ca c03c 6f6f d2bd
00000020: f602 cd3d 2da0 493d 9a50 12bd ccdf d8bd
00000030: f9ce 35bd a669 adbd f89d 1cbe 8feb 77bd
00000040: 2028 a1bd 65fa 053e 8a28 223e cca7 e93d
00000050: 82c9 ca3d 0639 acbd 6323 9a3d 1e2b 513d
00000060: c5ae 953d 020a 5fbd d0aa 4e3d 241f eabd
00000070: 3f59 8b3d 227e 9d3c a11d 18be 198d 003e
00000080: 31d9 af3d 7050 bdbd 99bf a8bc d95e 73bd
00000090: ced9 c83c 714c 073e 48a6 b23d 61fd 27bd
000000a0: aef9 9f3d 57df 86bd 4265 0a3e f453 d039
000000b0: dd96 0f3e e6e3 863d aa19 89bd 688b 76bd
000000c0: 6ef1 02be 7d85 f6bd 2f72 64bd a2e8 e3bd
000000d0: 7e3d 90bd 3d14 7ebd 84e8 863b 4e59 af3d
000000e0: ae66 3b3d 33e5 943d bc1f f53d fd45 d83d
000000f0: c186 943d 108d 76bd 30bd 00be f8d3 e33d
00000100: 004e 3cbd c84f f7bd 1e4e 053e 7727 02be
00000110: 97b3 1a3e 21cd 183d a470 a83d 28e0 27bc
00000120: f5e1 b53c abd5 3f3d 02fd 0b3e 19d6 b3bd
00000130: 86af f3bd c74a 663d 2c82 0abe aec0 7f3d
00000140: 60b0 f33c 5be6 0dbe 53ee 1ebd 3c03 da3d
00000150: 9ff0 b03b eea4 c53d 998a 07bd 38d5 a63d
00000160: 22cc e0bd a271 f0bd 57a7 aabd 99d2 0dbd
00000170: a0e1 7bbd d307 193e bcf8 f9bc 0a72 c63d
00000180: a30f 89bd b413 2b3e f6f1 8f3d a4f1 2c3d
00000190: 0f63 99bd 6551 9e3d 2dce 053e 4249 4abc
000001a0: 327d bf3d 1dc9 f63d ea13 d33d e808 afbd
000001b0: de75 093b 3e97 bf3d 646d afbc 7b01 cdbb
000001c0: 8141 66bd 6aff ab3d 74fd 083e 6a6c dd3d
000001d0: a0ce 8f3d 9323 203d e22f 853d d276 f93c
000001e0: 968f 7bbd 9b61 103e 5a37 9d3d ebd3 793d
000001f0: a5a3 f63c 82c4 80bd 1ead 613d 09f0 b3bc
00000200: ef3d 8fbb c683 683d f3c1 0d3d af7a 483d
00000210: ea53 aebd fdbc 81bd e5cc 4f3d 903a 84bd
00000220: 06dc 313d 71fc 903d a6a3 a23c 1186 e7bd
00000230: 21be 0b3d d6fe e6bc 71a9 733d 5b50 c5bd
00000240: cf3e 8fbd 1546 3fbd 2aa0 85bd a03e 81bd
00000250: c5f3 af3d 8b13 d1bd e968 f43d 3182 573d
00000260: c59c 00be e18c 843d 8fd5 06bd 1a92 73bc
00000270: 9ae6 90bd 55c8 bc3b 0b88 82bd f980 f5bd
00000280: 8e72 963d 406d 163e 6057 6c3d 206b 82bd
00000290: db79 0f3e 05e1 c53d 9acb 453d ef46 e43d
000002a0: 7d95 033e e066 f83d 83a7 92bd 6232 993d
000002b0: 1735 eb3d a3b6 f1bc b000 3cbd 6f67 503d
000002c0: 50cc e73d 3c5d cd3d ed36 0d3d 0f07 85bd
000002d0: 4bda ce3d becf 04bd 7331 97bd a15b 403d
000002e0: 6cac e43d 992c 8dbd 5fa8 f73c 6f88 9c3d
000002f0: f470 00be 9c8b 11bc c7ae 00bc a355 9d3d
00000300: dc2b d8bd ed3a 733d c0a7 66bb 8c10 d0bd
00000310: bce5 15be 6323 87bc c76b 6e3d 6ec0 d4bd
00000320: 5bea c13c f103 5c3c 039c 8f3d c28a 1a3d
00000330: dd9a 1e3d 74e7 043d 8277 4a3d 8c24 12be
00000340: d87f a33d e92f ebbd 0409 67bd 4474 95bc
00000350: 3234 c43d 60e8 fd3d ec7c 46bd a6e3 f53d
00000360: c5f2 043e fd47 ee3d 48a0 a4bc 3242 36bd
00000370: 768e ec3d c8aa e63d d125 873d 8fd0 03be
00000380: 9636 023d e084 153e 542c 1e3e 040e f73d
00000390: 98bb 93bc a94d febc 6e35 1cbe efb1 993d
000003a0: 7a68 063e 35d2 97bd 05c8 263d 0d23 fb3d
000003b0: 9c65 ecbc 5650 16bc c7d9 eabc 3065 96bd
000003c0: a9e6 073e e4fe f03c 2c94 083e 25af b6bd
000003d0: de2d a8bc 4c65 7a3d 9b68 fd3d de7e 22bd
000003e0: 8ee8 5c3d 434c 093e 02c2 233c 3b48 9f3c
000003f0: b87c bc3d d6c7 163e 8d0c f2bc e622 02be
-0.14722277 0.13093628 0.09124506 0.03608083 -0.07993122 0.016264005 0.023534156 -0.102751605
0.100103304 0.04922502 -0.0357214 -0.10589561 -0.044386838 -0.084674165 -0.15294635 -0.06052738
-0.07868981 0.13083799 0.15835777 0.11408958 0.09901716 -0.08409314 0.07526281 0.05106651
0.07308725 -0.054452904 0.05045587 -0.11431721 0.06804132 0.019225184 -0.14855053 0.12553824
0.08586348 -0.09243858 -0.020599173 -0.059416626 0.02451792 0.13212754 0.08723122 -0.041013125
0.078112945 -0.065855674 0.1351519 0.00039735402 0.14022394 0.06586437 -0.06694348 -0.060191542
-0.1278741 -0.120371796 -0.055772956 -0.111283556 -0.07042979 -0.06203102 0.0041170735 0.085619554
0.04575222 0.07270279 0.119689435 0.10560224 0.07252265 -0.06019312 -0.1257217 0.11124414
-0.045972824 -0.12075764 0.1301808 -0.12710367 0.1510757 0.037305 0.082246095 -0.010246314
0.022202471 0.04683463 0.13670734 -0.0878107 -0.11898713 0.056223657 -0.13526219 0.062439613
0.029747188 -0.13857405 -0.038801502 0.10645148 0.005399778 0.096505985 -0.03309116 0.08146137
-0.10976435 -0.11740424 -0.08332699 -0.03462467 -0.06149447 0.14944391 -0.030514114 0.0968972
-0.066924356 0.16706735 0.07028572 0.042222634 -0.07489597 0.077303685 0.13066931 -0.012346568
0.09350051 0.12050078 0.10306533 -0.085466206 0.0020974795 0.09355019 -0.021414466 -0.00625628
-0.056214813 0.08398326 0.13377935 0.10811694 0.070218325 0.039096426 0.065032735 0.030452166
-0.06141623 0.14099734 0.07676573 0.060993116 0.030107329 -0.06287481 0.055096738 -0.021965044
-0.0043713967 0.056766294 0.034608793 0.048945125 -0.08512099 -0.06334875 0.050732512 -0.064564824
0.04342272 0.070793994 0.019853424 -0.11304868 0.034116868 -0.028197687 0.059487764 -0.09634467
-0.06994402 -0.046697695 -0.065246895 -0.06310773 0.08591417 -0.10208806 0.119340725 0.052614395
-0.12559803 0.06472183 -0.03291851 -0.014866376 -0.07075234 0.005761186 -0.063736044 -0.1198749
0.07346068 0.14690113 0.057700515 -0.06368089 0.14011328 0.0966206 0.048289873 0.11146342
0.12849994 0.12128997 -0.071608566 0.07480313 0.114847355 -0.029506033 -0.045899093 0.050879892
0.113182664 0.10027549 0.03447621 -0.06495487 0.1010023 -0.03242468 -0.073824786 0.046962384
0.11165699 -0.06893272 0.030231653 0.0764321 -0.12543088 -0.008883383 -0.00785417 0.076823495
-0.105552405 0.059382368 -0.0035195202 -0.10159406 -0.14638418 -0.016496366 0.058208253 -0.103882656
0.02367132 0.013428674 0.07012179 0.037729986 0.038721908 0.032447293 0.049430378 -0.14271754
0.07983369 -0.114837475 -0.056405082 -0.018243916 0.09580268 0.12397838 -0.04845898 0.12006311
0.12983234 0.116348244 -0.02009596 -0.044496723 0.1155061 0.11263043 0.0659901 -0.12872528
0.03179034 0.14601469 0.15446597 0.1206322 -0.018033788 -0.03104289 -0.15254757 0.07504641
0.13125792 -0.07413141 0.040718097 0.12262545 -0.028857045 -0.009174427 -0.028668297 -0.07343519
0.13271584 0.029418416 0.13337773 -0.08920125 -0.020529684 0.06113176 0.123734675 -0.03967177
0.05393272 0.13407998 0.009994986 0.019443622 0.09203476 0.14724669 -0.029547 -0.12708625
